data.pth (torch, 3493 bytes, 6 tensors)

l1.weight f4 [8, 16]
0	0xbe393be3	-0.18089251
1	0xbe8ab12b	-0.27088293
2	0x3f3adc41	0.7299233
3	0x3f000505	0.5000766
4	0xbd254f97	-0.040359106
5	0xbd9b3670	-0.075787425
6	0xbde4b122	-0.11166598
7	0x3ea1bb9e	0.31588453
8	0xbe3e7546	-0.18599424
9	0xbded3f5d	-0.11584351
10	0x3e0aed71	0.13567139
11	0x3d06307b	0.03276108
12	0x3e966944	0.29377186
13	0x3d906cd4	0.07052007
14	0x3e809eb9	0.25121096
15	0xbc1c22f9	-0.0095298225
16	0x3c4d0971	0.012514458
17	0x3d8c5990	0.0685302
18	0x3f2b5e8b	0.66941136
19	0x3e1dde71	0.15416886
20	0x3d919b36	0.07109682
21	0xbe8c36dd	-0.27385607
22	0x3bd1813a	0.006393579
23	0x3ebaf79f	0.36517045
24	0xbdbd56c4	-0.09245065
25	0xbd22457c	-0.039617047
26	0x3e37a501	0.17934038
27	0xbe766788	-0.24062932
28	0x3e80e489	0.25174358
29	0x3dbaa10b	0.09112748
30	0x3ee7baaf	0.45259616
31	0xbdcfece6	-0.10152607
32	0xbdb0555c	-0.08610031
33	0xbd4d97cb	-0.05019359
34	0x3f18adf7	0.5964045
35	0x3ee6585c	0.44989288
36	0x3cffbb66	0.031217288
37	0xbd806e43	-0.06271031
38	0xbe6b518f	-0.22980331
39	0x3eaf837f	0.3428001
40	0xbec0ddf3	-0.37669334
41	0xbec0dbe3	-0.3766776
42	0xbe5d247a	-0.21595946
43	0x3c572985	0.013132458
44	0x3e2a1eb8	0.16613281
45	0x3cb32d89	0.021872299
46	0x3f08c900	0.534317
47	0x3d0262a7	0.031832363
48	0xbe6849da	-0.22684422
49	0x3ec3a929	0.38214996
50	0xbe176e79	-0.14788236
51	0xbc21dba2	-0.009879025
52	0x3d3d57bb	0.046226244
53	0x3dac01b5	0.08398763
54	0x3efd787b	0.49505982
55	0xbd3ebf90	-0.046569407
56	0xbe3d72bc	-0.18500799
57	0x3eb2a71f	0.34893128
58	0x3d8fc659	0.07020254
59	0x3ce09a40	0.027417302
60	0xbc1b1476	-0.0094653275
61	0xbc3e87e0	-0.011629075
62	0xbe4d11bc	-0.20026296
63	0x3ec05af0	0.3756938
64	0xbd48dc1b	-0.049038034
65	0x3c5dd37d	0.013539192
66	0xbe6855e6	-0.22689018
67	0xbe4fcf9e	-0.20294043
68	0x3df8a238	0.12140316
69	0x3eac31af	0.33631656
70	0x3f1201c5	0.5703395
71	0xbd60554d	-0.05476885
72	0x3ecd10bf	0.4005184
73	0x3ecda4c1	0.4016476
74	0x3e985578	0.29752707
75	0x3ecdc464	0.40188897
76	0xbe3d0ca6	-0.18461856
77	0x3e3c4fb4	0.1838978
78	0xbe06345d	-0.13105913
79	0x3e533152	0.20624283
80	0x3e04bab8	0.12961853
81	0x3e299766	0.1656166
82	0x3d9acbc8	0.075583994
83	0xbda87dcc	-0.08227119
84	0x3e9ccadc	0.3062352
85	0x3e6eb9c6	0.23313054
86	0xbe7a0dee	-0.24419376
87	0xbda90b94	-0.082541615
88	0xbd8f0cec	-0.069848865
89	0xbdc7f9a8	-0.09764415
90	0xbe38b1e8	-0.18036616
91	0xbe13a330	-0.1441772
92	0x3cd1ba21	0.025601448
93	0x3d6f5530	0.05843085
94	0x3dce2131	0.100649245
95	0xbe3910b0	-0.18072772
96	0x3e9129cc	0.283522
97	0xbdd8d507	-0.10587507
98	0xbcba75aa	-0.022761185
99	0xbe5518bc	-0.20810217
100	0x3d6a5380	0.057208538
101	0xbe7323d2	-0.23744133
102	0xbe1bb6cc	-0.1520645
103	0x3d1b8498	0.037968248
104	0x3eb9e04e	0.36303943
105	0xbe17dda4	-0.14830643
106	0x3e5316c3	0.20614152
107	0x3e99d609	0.30046108
108	0xbdf86a5e	-0.12129663
109	0x3eaec6da	0.34136087
110	0xbe068a6f	-0.13138746
111	0x3ebff626	0.37492484
112	0x3ea5e5a6	0.3240177
113	0x3eab9190	0.33509493
114	0xbe77ec19	-0.24211158
115	0xbe1f4678	-0.15554225
116	0x3ecdc489	0.40189007
117	0x3ec88460	0.39163494
118	0x3dfceedc	0.12350246
119	0xbe3e61b5	-0.1859196
120	0x3ec7853a	0.3896883
121	0x3e2db79e	0.16964576
122	0x3e948db4	0.2901436
123	0x3e5aa505	0.21352012
124	0xbe5cf292	-0.21576908
125	0x3da36543	0.079782985
126	0x3d0725f7	0.03299519
127	0x3e831361	0.25600722

l1.bias f4 [8]
0	0x3ded1104	0.11575511
1	0x3ee9753e	0.4559726
2	0x3ec0db58	0.37667346
3	0x3e2139d9	0.15744723
4	0x3ed31cfe	0.41233057
5	0xbdcf4489	-0.10120494
6	0x3e0395be	0.12850091
7	0x3ecb06ed	0.3965372

l2.weight f4 [8, 8]
0	0xbe3c5860	-0.18393087
1	0x3dacb2a8	0.084325135
2	0xbb9aba26	-0.0047218977
3	0x3ee457d1	0.4459825
4	0x3edab183	0.42713556
5	0x3ef54536	0.47904366
6	0x3eaf0a2a	0.34187442
7	0x3f38a537	0.721271
8	0xbdd8030b	-0.105474554
9	0xbe56e4b5	-0.20985682
10	0xbd5e1ed5	-0.054228622
11	0xbeb13ad6	-0.346152
12	0xbe2ebca5	-0.1706415
13	0xbd9aa53b	-0.075510465
14	0xbdb886e3	-0.090101026
15	0x3e9f8ca3	0.31161985
16	0xbf074ef9	-0.5285488
17	0x3ec849bc	0.39118755
18	0xbeaa9656	-0.33317822
19	0x3e235ea2	0.15954068
20	0x3ecc43bb	0.39895424
21	0x3eb6780e	0.3563847
22	0x3f3088e5	0.68958884
23	0x3f2915a4	0.66048646
24	0x3f4b2c1a	0.7936417
25	0x3f4b1f07	0.7934422
26	0x3ee1164f	0.43962333
27	0xbe85d5b2	-0.261396
28	0xbef2a9a6	-0.47395056
29	0xbe20d9a5	-0.15708025
30	0xbe16f32a	-0.14741197
31	0xbdcb54a9	-0.09928257
32	0xbece0c1a	-0.40243608
33	0xbdf030a3	-0.11728027
34	0xbda0c069	-0.07849199
35	0x3ea30b37	0.31844494
36	0x3f579c5c	0.8422296
37	0x3edde62a	0.43339664
38	0x3e9fd06d	0.31213704
39	0x3f14d8fd	0.581436
40	0xbe6f738b	-0.2338392
41	0x3e3a8c7b	0.18217652
42	0xbecd96a8	-0.40154004
43	0x3eb532fd	0.35390463
44	0x3f096339	0.53667027
45	0x3ec7065c	0.3887204
46	0x3ee0b87c	0.4389075
47	0x3e33d3e5	0.175613
48	0x3f39ae50	0.72531605
49	0x3f3e7c8f	0.7440881
50	0x3f450f2d	0.7697628
51	0xbe76f735	-0.2411774
52	0xbf06a045	-0.525883
53	0xbec78718	-0.38970256
54	0xbe2d1338	-0.16901863
55	0xbe0e5e72	-0.13903216
56	0xbf099c8f	-0.53754514
57	0xbe1003ed	-0.14063998
58	0x3df7214f	0.120669
59	0x3f39b06c	0.72534823
60	0x3f67dc80	0.9057083
61	0x3e8bb1bc	0.27284038
62	0x3e14db15	0.14536698
63	0x3ee7a629	0.45243958

l2.bias f4 [8]
0	0x3dcae103	0.09906199
1	0xbeaf474d	-0.34234086
2	0x3ee2dbb6	0.4430825
3	0x3e75f7a7	0.24020253
4	0x3efe45c4	0.49662602
5	0x3ed7d937	0.4215791
6	0x3e81e156	0.2536723
7	0x3f07fab6	0.5311693

l3.weight f4 [2, 8]
0	0x3f39c02b	0.7255885
1	0xbc4646f4	-0.0121018775
2	0x3ecec5b5	0.40385213
3	0xbf2d9c73	-0.6781685
4	0x3f3769b9	0.71645695
5	0x3eeb65bc	0.45976055
6	0xbf06e765	-0.5269683
7	0x3f0df8e6	0.55457914
8	0xbf309e16	-0.6899122
9	0x3e7d4e7a	0.24736968
10	0xbef6a4b0	-0.48172522
11	0x3f55f3be	0.83575046
12	0xbf265a21	-0.64981276
13	0xbeb4347d	-0.35196295
14	0x3f400451	0.75006586
15	0x3d61eb69	0.055156145

l3.bias f4 [2]
0	0x3e804045	0.25049034
1	0x3d85c0aa	0.065308884
